saved_params/cart_pole.pt (torch, 20773 bytes, 6 tensors)

fc1.weight f4 [64, 4]
00000000: 40f9 07be b01e 3abe da76 113f 80c0 5d3d
00000010: 776e 8abe 2259 263f 3e1b 6ebd cad2 163d
00000020: 4c0f c6be 4eed 053f 327d fb3e d132 a3be
00000030: 6fc8 c0be 9a03 fa3e aaa8 93be ec4b c3bd
00000040: 64f7 333e 71cc 2f3f 9c62 30bd 4d26 d53e
00000050: 6043 973d a279 eb3e 2889 bf3e 95f2 313e
00000060: 9094 f43e 583f 343f 871f b03e b0d7 ab3e
00000070: 4cb5 703e 502c cebd 66d7 f33e 1879 05be
00000080: 77ae 3a3e 6189 1e3d a2fa 7e3e 603f 8abd
00000090: 2d15 283d 0cb4 33be c83d f5be 123b 323e
000000a0: d472 113f 9171 8c3e 0e2e 14be 5923 e8be
000000b0: f07c bebe 2adf 883f e788 823f 39ff 3d3f
000000c0: 1df6 153f 9420 1b3f f03e 413e f53a 353d
000000d0: b548 d3bd 3d6f f03e b277 8fbe 336d b3bd
000000e0: aa4b 88bc f6b7 c63d 9f4d 4dba 8381 8cbe
000000f0: dc02 d4be 3f2c df3d 1253 833d 665d 49bd
00000100: 1407 813e dacf d8be 8595 edbe 2837 153f
00000110: c344 cbbe f890 0a3e e105 4b3f daad ed3d
00000120: 7e40 3c3e 0b76 f0be fb43 1ebf 1491 403e
00000130: fa50 abbe d949 163f dbee b43f da7d 093f
00000140: e571 513c 4873 b4be 1ea0 fbbd 75ef b13d
00000150: e40b 0f3f c188 9dbe 57cb 313d 2566 9e3d
00000160: 3dc8 693d 9b54 463f e6c7 b93e 9663 493f
00000170: db7b ea3d 22de f03e 3632 b03e d081 1a3e
00000180: 0e5d 9c3c b3bf 35be e1eb c23e 5e38 173e
00000190: c07e 743e 9bf4 a53d d0b5 563e 87c2 1cbf
000001a0: cf92 c63e a6ab 8bbe b227 ccbe 67e6 013d
000001b0: fd63 063f 9514 58bf cd6f c7bf 6ead 72bf
000001c0: e78b 533c 4d83 c9bd 1142 7e3e 581e a9bc
000001d0: d8bc 9c3d 7d65 c9be b5a5 88bf 5f39 0dbf
000001e0: 2a85 2e3e 51d9 d0be 89ae 143f 12e4 ad3d
000001f0: 4025 153f 1e1d 08bf 4c7a a13e 14b3 c2be
00000200: e6b9 1f3f 211c 83be 9dc0 43be b647 103e
00000210: d772 0ebf b4f3 0f3f 9243 a73e 6e65 ec3e
00000220: 63e0 0ebc afa6 24bf 4946 f4be ea27 1cbf
00000230: 2079 0cbe 2e82 6c3e f877 a73e cd26 00bf
00000240: 747c 5d3a 0856 a0be e312 d6be 5706 7e3c
00000250: 54cd 81be 1333 683c e8e5 b63e e2d8 263f
00000260: 74ec 57be afd1 47be 14cc 07be 51c3 4bbe
00000270: 060b 00bf 197f c2be 5a4c 9fbe 22bd 7fbe
00000280: f1e4 863f 011e 99bf 6bf6 61bf fc31 62bf
00000290: af7a c9bd 6320 833e 363b 8c3f fe2a 1b3f
000002a0: 72c9 d93e 2785 2c3f c5a4 c0be 2949 d53e
000002b0: c2f6 143e 13f2 8bbe 4c57 9e3e 86a3 85bd
000002c0: b638 96be afb3 7abf 97fa c5bf 8cd0 38bf
000002d0: 9f48 ca3e b6ec b5bc 00d2 3abf 9430 b4be
000002e0: 127d b3be fd3e 5b3f b207 333f c43d 473f
000002f0: 5464 783e 8229 3b3f 7706 a23e bb19 89bd
00000300: 7b22 5fbe 5b92 9c3d 2ffd 3f3e 927f dabe
00000310: 7741 c63e 101a 29be 26f7 a23e e64d a2be
00000320: cced e6bd 5519 a6bd ae49 8bbc 5af7 b73e
00000330: 0500 cb3d 0fbc 4a3f 3bcd 833f 6b14 143f
00000340: 90f5 1fbf f897 263e c53f 4abb 2832 493e
00000350: b649 cf3e 5eb4 9fbe b1ea e7be dd10 cbbe
00000360: f25d 79bf 0c0e bb3e dbf7 623f 05ab 863e
00000370: 3547 aebc 6440 a7bd b6db a93e d95e 013f
00000380: 4f2e 57be 1dd3 9c3e e5ce 6ebf 19ed 42bf
00000390: 6936 0abc cb11 bebd 657f 4cbf c540 10bf
000003a0: a699 2b3e 41db c8bd ac88 b3bd b160 5bbe
000003b0: cf67 993f db10 08bf 7e6e b0bf d035 36bf
000003c0: 9c99 01bd 3a9c ae3e 6f10 9ebe d0bb 57bd
000003d0: 3a03 aebe 67a4 c23e 0320 bdbe 4906 463e
000003e0: 9be9 d1be 1813 e1bd d189 07be 5641 49be
000003f0: 56ab aa3e 32d9 cabe d02f fe3e 8c25 cabe
-0.13278675 -0.18175769 0.5682198 0.05413866 -0.27037403 0.64979756 -0.05813145 0.036822118
-0.38683546 0.52315223 0.49118954 -0.31874707 -0.3765292 0.48830873 -0.28839618 -0.09535965
0.17574841 0.6867133 -0.04306279 0.41630784 0.07385898 0.45991236 0.3740933 0.17377694
0.47769594 0.70409155 0.34399053 0.33562994 0.2350666 -0.10067046 0.47625273 -0.13034475
0.18230616 0.038705233 0.24900296 -0.06750369 0.04103582 -0.17549151 -0.47898698 0.17405346
0.5681584 0.27430394 -0.14470693 -0.45339468 -0.37204695 1.0693104 1.0198029 0.74217564
0.58578664 0.60596585 0.18871665 0.04424568 -0.10316602 0.46959868 -0.28021008 -0.087610625
-0.016637642 0.097030565 -0.0007831696 -0.2744256 -0.41408432 0.10897111 0.06412329 -0.049161337
0.25200713 -0.42346078 -0.46403137 0.58287287 -0.397009 0.13531864 0.79305845 0.11605425
0.18383977 -0.4696506 -0.6182248 0.18805343 -0.33460218 0.5870643 1.4135393 0.5370766
0.012783502 -0.35244203 -0.12286399 0.08688251 0.5587752 -0.30768397 0.04340681 0.07734326
0.057075728 0.7747285 0.36285323 0.7866758 0.11449405 0.47044474 0.34413308 0.15088582
0.01908734 -0.17748909 0.38070586 0.14767596 0.23876476 0.081032954 0.20967793 -0.61234325
0.3878388 -0.27279395 -0.39874035 0.03171387 0.5249632 -0.84406406 -1.5580994 -0.9479588
0.012911773 -0.09839497 0.2482989 -0.020644352 0.076532066 -0.39335242 -1.067557 -0.55165666
0.17042986 -0.407908 0.5807882 0.084907666 0.58259964 -0.5316943 0.31538618 -0.3802725
0.62393034 -0.25607398 -0.19116445 0.14089856 -0.5564398 0.56231236 0.3266874 0.46171135
-0.00872049 -0.6431684 -0.47709873 -0.60998404 -0.1371808 0.23096535 0.32708716 -0.50059205
0.0008449026 -0.31315637 -0.41811284 0.015504441 -0.25351965 0.014172333 0.3572228 0.65174687
-0.21086293 -0.19513582 -0.13261443 -0.19898726 -0.5001682 -0.37987593 -0.3111294 -0.24974492
1.0538617 -1.1962281 -0.8826663 -0.8835752 -0.09837853 0.25610647 1.095557 0.60612476
0.42536503 0.67390674 -0.3762571 0.4165738 0.14547256 -0.27333125 0.30925977 -0.0652533
-0.29340142 -0.97930425 -1.5467099 -0.7219322 0.3950853 -0.0222076 -0.72976685 -0.35193312
-0.3505636 0.8564299 0.6993362 0.7782862 0.24257022 0.7311021 0.31645557 -0.06694361
-0.21790497 0.076451026 0.18748926 -0.42675453 0.3872182 -0.16513848 0.31829184 -0.31700057
-0.11275825 -0.081103005 -0.017002907 0.35930902 0.09912113 0.79193205 1.0297006 0.57843655
-0.62484074 0.16268909 -0.0030860764 0.1964804 0.40485924 -0.31192297 -0.45296243 -0.39661303
-0.97408974 0.36534154 0.8865945 0.26302353 -0.021274189 -0.081665784 0.3317544 0.5053535
-0.21013759 0.30629817 -0.93284446 -0.7614303 -0.008435824 -0.092807375 -0.7988189 -0.5634883
0.16757831 -0.09807444 -0.087663025 -0.21423604 1.1984805 -0.5315072 -1.378372 -0.7117586
-0.031640634 0.34103566 -0.30871913 -0.052669346 -0.33986837 0.38016054 -0.36938486 0.19338335
-0.4099854 -0.1098997 -0.13236167 -0.1965383 0.33333844 -0.39618832 0.49645853 -0.3948177

fc1.bias f4 [64]
00000000: 869b febe 0e05 8a3e e78e f5bd 8ec2 dd3d
00000010: fde1 afbd 925c 3abc 890f e4be 6e1f cebe
00000020: ccfa 1a3f 50ac 42be 39d7 cfbe 95e3 263e
00000030: 8e4a 233e 7e13 0e3f fd1c 223f 7388 3cbf
00000040: 5f6f b93d 5f45 9b3d 19e1 b63e c788 c43e
00000050: ef27 b83e a070 7abe faad debe 6cd0 9fbe
00000060: 5244 bc3e 7288 913d a2f7 fabe 2e85 3ebf
00000070: 4be4 303f f7b0 7a3e 561b 61be f88e 3a3f
00000080: 1736 24be 3d15 1f3e 4ce2 2ebf 6a5e 283f
00000090: ca25 a53e 1386 79be e51a 37bf de63 c9be
000000a0: 5bc8 6abe d123 c9be 9668 c2bd 9bd3 e2bd
000000b0: 7378 e1bf 4df3 1a3f a30b c9be 6267 b13e
000000c0: be61 c43d b493 523f 89b0 b6be 7a87 0a3f
000000d0: d0fd 97bf 518c 003f d0fa c7bf 27f2 703e
000000e0: b45d 0dbe 7d84 753e a22c 583e 3655 01bf
000000f0: 3bad c83e 4d36 143e f6f8 84bf f695 fabe
-0.4972803 0.2695698 -0.11990147 0.10828124 -0.08588026 -0.01137461 -0.44543102 -0.40258354
0.60538936 -0.19011045 -0.4059389 0.16297753 0.15946409 0.5549849 0.6332548 -0.73645705
0.090544455 0.07581591 0.3571861 0.38385603 0.35967967 -0.24457026 -0.4349211 -0.312137
0.36770874 0.07106103 -0.49017054 -0.74421966 0.6909835 0.24481569 -0.21983084 0.72874403
-0.16036259 0.15535446 -0.6831405 0.65769064 0.32255393 -0.24367552 -0.7152541 -0.39334005
-0.22927992 -0.39285138 -0.094926044 -0.11075517 -1.7614883 0.605275 -0.3926669 0.34649187
0.09588955 0.8225663 -0.3568156 0.5411297 -1.1874332 0.50214106 -1.5623417 0.23529874
-0.13805276 0.23976322 0.21110776 -0.50520647 0.39194664 0.14473839 -1.0388477 -0.48942536

fc2.weight f4 [64, 64]
00000000: 3e34 98be c340 2c3d 887d 1b3e 9a88 3a3d
00000010: e1a3 af3e c1a4 be3e f7a2 aabe 006f 2d3c
00000020: c6bd da3d d614 dd3d 531b a3be 1d54 223f
00000030: 7995 1b3e 2443 273e 567c 873e 9b88 88be
00000040: 405c 773e 9450 90be d8f7 323e dbf4 e0be
00000050: 1465 353e 51a4 563e 3aa6 15bf 6d9d e1bd
00000060: 4146 ad3d a0b9 f23d e05a ce3c b946 88bf
00000070: b0bf 5e3e 96a2 33be 37b5 a2bd 12a3 a03e
00000080: 308c 893e 4ac4 70be 8078 07bf 0eec 933e
00000090: 4a1f 203e 9b6b 29be 9936 a9be c07a 13be
000000a0: ab9c 7c3f e00c f1be c904 863e dd74 83bd
000000b0: 3278 8ebf 0664 80be 0847 36bf 8b5c 83bc
000000c0: 48b4 923c 4b9d 6b3e 1870 f1bc 446c 11bf
000000d0: 4b4b eabe 9f7e 7abe f248 6ebf 1202 71bd
000000e0: aa4b 80be af5d 26be d328 3abe d602 66bf
000000f0: fdec 3d3d ca1f 4d3d 587e ecbe 3843 dc3d
00000100: 7e63 ac3d ebc9 1fbd 3891 c6bc 93ab 903d
00000110: 8e26 94bb eb82 47bc 0df4 abbc d002 be3d
00000120: 3f9e 53bd 5938 b73d baaf 19bd c188 cdbd
00000130: fab3 3a3c ffa9 353d 03fe e2bd e426 34bd
00000140: 10a0 9d3d edd9 d53b 86a9 d73d 535f 553c
00000150: d01a 3cbd ed4d ab3c 8737 c33d e030 50bd
00000160: d723 02be 459a 3fbd ebf9 f7bd 6665 f23d
00000170: 86ea f1bd d1c1 c4bd c0d0 d33d 04de 9d3d
00000180: d41a f73d 6c17 8c3d c5b6 4cbc 30bd efbd
00000190: 6721 57bd 15cc d53d 341e d33d 6aba 88bd
000001a0: 32ac 633c 482a 813d 3729 e0bd 61c4 b83b
000001b0: 5abe b3bd d438 1e3d d80f c6bc 816c 0c3d
000001c0: 6549 efbc 7490 c23c f759 583d 6b73 cd3d
000001d0: 6d3a b9bd 5e75 d2bd 6d32 7db8 e6d8 cabd
000001e0: 06f1 3fbd 703f 29bb b0d2 0cbd 0c48 733d
000001f0: b092 a93d 814d 96bd f407 33bd 080f f1bc
00000200: 461c e93c c768 b1bd 1442 e33c 2e26 c33d
00000210: a8aa f4bd db6c 04bd 9b2e c83d ae65 c6bd
00000220: be12 203d 21a9 95bd 0839 c5bd 7a52 ddbd
00000230: 6974 a43d 1dda 3e3d 10a4 343d a383 eb3d
00000240: c46f 0bbd 4753 e5bd 7c13 8cbc c49a 9f3d
00000250: 9f2e c5bd 7869 9d3c bec1 53bd 7127 713c
00000260: b303 1fbc 9594 ec3d 088c 843d df9f efbc
00000270: d1df a8bd 62f0 393d b008 e03c 2e39 f6bd
00000280: df9e b2bd 7360 da3d 3cd1 efbc 62a0 02bd
00000290: 0905 80bc f0dc ab3d 7abe c7bd c13c 963c
000002a0: 4d13 a63c bc09 4abd 014d eb3d 78b9 a3bd
000002b0: 84b6 3dbd b89b 96bd ab25 bdbc e42d 3d3d
000002c0: c476 7dbd 07a1 cabd fa35 cd3d 9da3 4ebd
000002d0: e066 7d3c 55c7 1cbd c88d 853d 3150 78bc
000002e0: 228a 99bd 8192 c23d ace4 d5bd f77e 90bd
000002f0: 5478 9e3d 955a 78bd 1057 db3d 2013 a4bb
00000300: cfa2 77bd 7b93 bcbd a979 8bbd 17a8 dfbc
00000310: f5eb e4bd a906 8cbd db95 22bd c427 913d
00000320: 1968 d83d b4a5 f23b 0096 663a 7990 dfbd
00000330: 8bf4 df3d 4ae3 3ebd 357c 15bd d7ce e13d
00000340: 5b7f 1d3d 711e 86bd 7837 a4bd d956 4d3d
00000350: c7db a6bc f47c 073e 3c41 873d ec0e 783d
00000360: 469c 003c 3f91 9ebd a008 05bc 3558 de3c
00000370: a596 c83d f65a a3bc de10 a63d c723 adbd
00000380: 9ac1 96bd da15 cf3d c0dc dd3d 6b86 ba3d
00000390: 1b47 d3bd 61e7 183e 36a7 bebd 5a3f b2bc
000003a0: 22b4 c63c 292d 4f3c 2aba fdbd c138 c0bc
000003b0: a61d 8ebd 4372 9dbb 33ba 723d 5bcd 04bc
000003c0: a103 943c e5b0 08be c154 a4bd d15b 4bbd
000003d0: da00 ce3d e81d c8bc aa7f 813d c7b5 fa3d
000003e0: 02e9 133d 5044 91bd bbaf fb3d 3a22 bfbd
000003f0: e357 9d3d 70ce e53d c86a a53d b857 003d
-0.29727358 0.04205395 0.15184605 0.04554043 0.34304717 0.37235072 -0.33327457 0.0105855465
0.10680728 0.1079499 -0.31856784 0.63409597 0.15193738 0.16334206 0.26462048 -0.26666722
0.24156284 -0.28186476 0.17477357 -0.4393681 0.1771434 0.20961119 -0.58456767 -0.11016355
0.084606655 0.118518114 0.025189817 -1.0646583 0.2175281 -0.1754249 -0.0794472 0.31374413
0.26864767 -0.23512378 -0.52918243 0.28891033 0.15636936 -0.16544954 -0.33049467 -0.14402294
0.98676556 -0.47080135 0.26175526 -0.06418774 -1.1130431 -0.25076312 -0.71202135 -0.016035339
0.01790823 0.23009221 -0.029472396 -0.56805825 -0.4576057 -0.24462365 -0.93080056 -0.058839865
-0.25057727 -0.16246675 -0.18179636 -0.8984808 0.046368588 0.050079145 -0.46190143 0.107550085
0.08417414 -0.039010923 -0.024239168 0.07063975 -0.0045211976 -0.012177209 -0.020990396 0.0927788
-0.051664587 0.08946294 -0.0375211 -0.10035849 0.011395449 0.044351574 -0.11083605 -0.0439824
0.07696545 0.006526223 0.10530381 0.013023215 -0.045924008 0.020911181 0.095320754 -0.05082786
-0.12708984 -0.046777982 -0.12108215 0.118357465 -0.1181231 -0.0960728 0.1034255 0.07708362
0.12065664 0.06840405 -0.0124947475 -0.117060065 -0.05252209 0.10439316 0.10308495 -0.06676181
0.013896035 0.06306893 -0.10945361 0.0056386446 -0.08776541 0.038628414 -0.024177477 0.034283165
-0.029209802 0.023750521 0.052820172 0.1003178 -0.09044347 -0.10276292 -6.0366863e-05 -0.09904651
-0.046860717 -0.0025825165 -0.034380615 0.05939488 0.082799315 -0.073390014 -0.043708757 -0.029426113
0.028455865 -0.08662563 0.02774147 0.095287666 -0.119466126 -0.032330375 0.09774514 -0.096873626
0.039080374 -0.073076494 -0.096300185 -0.10806747 0.08030016 0.046594728 0.044101775 0.11499717
-0.034042135 -0.111975245 -0.017099135 0.07793191 -0.09628033 0.01921533 -0.05169844 0.014718876
-0.009705472 0.11551777 0.06472021 -0.029251037 -0.082458146 0.045395263 0.027347893 -0.12022625
-0.087217085 0.106629275 -0.029274575 -0.031891234 -0.015627401 0.0839175 -0.097531274 0.018339517
0.020272875 -0.04932569 0.11489297 -0.0799436 -0.04631664 -0.0735392 -0.02308925 0.046186343
-0.06188084 -0.09893995 0.10020061 -0.050449003 0.015466422 -0.038276035 0.06521183 -0.015155838
-0.0749705 0.095006 -0.10444006 -0.070554666 0.077377945 -0.06063326 0.10709965 -0.0050071627
-0.060458 -0.09207817 -0.06810314 -0.027301831 -0.11177818 -0.06837208 -0.039693695 0.07087663
0.1056673 0.0074050073 0.00087961555 -0.10916228 0.10935315 -0.04660348 -0.036495406 0.1102578
0.038451534 -0.06548775 -0.08018392 0.050131653 -0.02036847 0.1323126 0.06604239 0.060561106
0.0078497585 -0.07742547 -0.008119732 0.02714167 0.09794358 -0.019940834 0.08108686 -0.084540896
-0.07361145 0.1011159 0.1083312 0.091076694 -0.10316297 0.14932014 -0.09309237 -0.021758724
0.024255816 0.012645044 -0.123890236 -0.023464562 -0.06939249 -0.004804881 0.059259605 -0.008105601
0.018068137 -0.1334873 -0.08023978 -0.04964811 0.10058756 -0.024428323 0.06323178 0.122417025
0.036110885 -0.07093108 0.12289377 -0.093327 0.07682779 0.112210155 0.080770075 0.031333655

fc2.bias f4 [64]
00000000: d46a 4a3f 2b55 053d 1d0b a43c 9ad3 e4bd
00000010: 81c8 f1bd 2302 463e 802a 7b3b 5465 903d
00000020: bdd7 a13e 5ca6 a8bd 18ae 253f ce77 823d
00000030: d163 8ebd ef2b c2bd 871c da3b b109 fd3d
00000040: a2b9 00bd 479b 263e cc86 e4bd f95e ea3e
00000050: d1f8 10bc 1618 dabd 764d c33e 97f2 8a3c
00000060: 4ea7 973e b64f 09bd 4205 22bd 928e b6bd
00000070: 88b3 db3e 92f3 8d3d f62b 643d fffc b93d
00000080: aafb db3e 7323 1e3e fb57 493e ac09 6abd
00000090: 2c22 9abd 73c5 ff3c a26e b23e 2036 37bc
000000a0: 9ae0 febd 29b3 3dbd d170 0fbd 7257 8b3c
000000b0: 9ae8 ed3d 9d01 e93e 40ac 50bd 8fc1 9b3e
000000c0: 44d1 113d 6611 d83c 781b 313d 2d8b ca3e
000000d0: e89c 063d fb86 89bd bbb4 e83d 17b2 f53d
000000e0: 0891 ae3d 9e38 79bd 2b07 c63d 8e09 5f3e
000000f0: 22cd 0abe 2da5 babc 1476 0f3e 7fd7 acbd
0.79069257 0.032551926 0.02002483 -0.11173172 -0.11805821 0.19336753 0.0038324893 0.07050577
0.31609908 -0.082348555 0.6471877 0.06370507 -0.06952632 -0.09481036 0.0066562328 0.12355364
-0.031427033 0.16270171 -0.11158523 0.45775583 -0.008848385 -0.10649125 0.38145036 0.016961379
0.2961983 -0.033523284 -0.039555795 -0.08913912 0.4291041 0.06931223 0.055705987 0.09081458
0.42965442 0.1544321 0.19662468 -0.05713813 -0.07526049 0.03122208 0.3485003 -0.011182338
-0.12445183 -0.04631344 -0.0350197 0.01700947 0.11616631 0.45509043 -0.05094552 0.3042111
0.035599962 0.026375484 0.043239087 0.39559308 0.03286448 -0.067151986 0.113625966 0.119968586
0.08523756 -0.06084501 0.09669336 0.21780989 -0.13554814 -0.02278384 0.14009887 -0.0843954

fc_end.weight f4 [2, 64]
00000000: 03a0 f23f 9e14 243e cf62 e43c 48f9 d63d
00000010: 219a 4bbf b7b5 f33e f0cd 213c 0a45 ef3c
00000020: 450d 603e b485 b3be 0c3d a93f 3e9f c13d
00000030: c63d 06bf 2e42 e53d 55a6 913e fd1c ce3e
00000040: e316 703d 4616 e83e 38b2 383d c560 2d3f
00000050: 50ef 2f3f ac03 c4bd b299 4a3f cae8 c0be
00000060: 5c39 c53e f8f2 25bf 0af4 0bbf a88e 9d3d
00000070: 381e 5a3f 8f7e 9f3d 8bae b53e f3f3 373e
00000080: bd30 6d3f e3c5 8f3e 26e2 e63e 1036 2bbf
00000090: 00e2 2f3b 96d4 adbd dbb1 0b3f f542 393f
000000a0: bf51 b23b c1f3 41be 4fd1 3d3d 8361 413b
000000b0: c5b6 b6be 6c8c 823f da72 fabe fede 8b3f
000000c0: 40cf 833b 7ccd 8f3e b691 a03d c0f2 883f
000000d0: c644 f83d 83a5 b7ba ce30 b13e 56e1 a93e
000000e0: 5cb2 7dbe 3b9c 9bbd 7aa7 79bf 3ab2 e03e
000000f0: a36b 47bd 8317 59bd 4e4e 833b d2af f6bd
00000100: ea3e ec3f 7f17 ef3b 75f3 033d 74ec 2bbe
00000110: 081c 453e 7c3f 013f 8ede dfbd 0e94 f93d
00000120: e595 4c3f 9f46 b93d 7b3b c53f 22e6 903d
00000130: 9894 3dbd 3d74 a73d 68a5 9f3e 91be 6c3e
00000140: 7142 4cbc 0145 b5be 60aa fa3b 460f 593f
00000150: 751d 1ebd fc4d 373e 1054 613f f81a 0e3d
00000160: d609 023e 7883 c13d 3237 d1bc 508c d7bc
00000170: cda3 b23f 10f9 dcbe ad5b 613e ff3f a83e
00000180: 4657 833f 1ed7 0b3f 1652 a33e 83ec b1bc
00000190: 6ea7 ebbd 793b 403d e5bc 633f 278a 0f3e
000001a0: fb8a ee3d b19e 9abd 5da8 6c3e 4e78 873e
000001b0: ca91 cc3e 6314 173f 5196 3f3d 466f 573f
000001c0: c249 f73d 72e7 31bf 0ac4 f7bd 3a5c e23e
000001d0: a6f3 c1bd bb57 083d 45a5 a7be 6ef2 f03e
000001e0: a3ac b83d 101a 213e 211b b03b 4cd0 f63e
000001f0: 98ea 74be a289 023e b1c2 523e aded 0d3d
1.8955082 0.1602349 0.027879147 0.104967654 -0.7953206 0.47599575 0.0098757595 0.029207725
0.21880062 -0.35062945 1.3221755 0.09454201 -0.5243801 0.111942634 0.28447214 0.4025649
0.058615576 0.45329493 0.045091838 0.67725784 0.68724537 -0.09571013 0.7914077 -0.37677604
0.38520324 -0.64823866 -0.5466925 0.07693225 0.8520236 0.07787811 0.35484728 0.17964153
0.92652494 0.28080663 0.45094413 -0.6687937 0.0026837587 -0.08487813 0.5456826 0.72367793
0.005441874 -0.18940641 0.04634219 0.0029507584 -0.35686317 1.0199103 -0.4891575 1.0927427
0.004022509 0.2808646 0.07840292 1.0699081 0.121224925 -0.0014011118 0.34607548 0.3317973
-0.2477507 -0.07598158 -0.97521174 0.43885976 -0.048686635 -0.05300094 0.0040071374 -0.12045254
1.84567 0.007296502 0.0322146 -0.16789418 0.19248974 0.50487494 -0.10931121 0.12186442
0.7991622 0.09046673 1.5408777 0.07075144 -0.04628429 0.081764676 0.31180882 0.2311957
-0.012467013 -0.35404208 0.007649705 0.8478893 -0.03860231 0.17900842 0.88018894 0.03469369
0.12699065 0.09448904 -0.025539014 -0.026312023 1.3956238 -0.4315877 0.22007628 0.32861325
1.0261009 0.5462512 0.31898564 -0.021719223 -0.11506544 0.046931718 0.88960105 0.14017545
0.11647602 -0.07549799 0.231111 0.26458973 0.39954978 0.5901548 0.046774212 0.84154165
0.12074615 -0.6949378 -0.12097938 0.44210988 -0.094703004 0.03328679 -0.32743278 0.4705996
0.09017303 0.15732598 0.005374328 0.48205793 -0.23917615 0.12747815 0.20582081 0.034650493

fc_end.bias f4 [2]
00000000: 1d2e 663f 736a 353f
0.89914113 0.70865554
